ml/models/model00.pth (torch, 6927 bytes, 8 tensors)

fc1.weight f4 [20, 5]
0	0x3e825293	0.25453624
1	0x3e96bc2c	0.2944044
2	0xb9e4a7e4	-0.00043612637
3	0x3edad00c	0.42736852
4	0x3f031d9c	0.51217055
5	0x3e822757	0.2542064
6	0x3edd1048	0.43176484
7	0x3c6d6d06	0.014491325
8	0x3e8637a8	0.26214337
9	0x3dca9e60	0.09893489
10	0x3e53ec90	0.2069571
11	0x3ed6e7fa	0.4197386
12	0xbed192df	-0.40932366
13	0x3ec3de79	0.3825567
14	0x3ebce4b9	0.36893252
15	0x3cd01b74	0.025403716
16	0xbf630c88	-0.88690996
17	0x3d061547	0.032735135
18	0xbf0661bf	-0.524929
19	0xbe2de1e5	-0.16980703
20	0xbeeba1dc	-0.46021926
21	0xbede6a7f	-0.43440625
22	0xbe901870	-0.28143644
23	0x3eadd6d4	0.33952963
24	0xbdb94231	-0.09045828
25	0xbe75c6b1	-0.24001576
26	0xbe48952f	-0.19588159
27	0xbe5240ac	-0.20532483
28	0xbd9dd5fe	-0.077068314
29	0xbecb48da	-0.3970402
30	0xbcfdb9c0	-0.030972362
31	0xbe04ad1e	-0.12956664
32	0xbe503ae2	-0.20334962
33	0x3ea1a4f0	0.3157115
34	0x3e816f6b	0.25280318
35	0xbc612e47	-0.013743944
36	0x3e55f8d8	0.20895708
37	0xbe5130ab	-0.20428722
38	0xbea7f698	-0.32805324
39	0x3d6a3b84	0.057185665
40	0x3e353881	0.17697336
41	0x3e88032f	0.2656493
42	0xbe930050	-0.28711176
43	0x3ecc18fd	0.39862815
44	0x3eb9d915	0.36298433
45	0xbe5cbc86	-0.21556291
46	0xbedaf32b	-0.42763647
47	0xbe2f0151	-0.17090346
48	0x3ebc7b53	0.3681284
49	0x3e80a3f3	0.25125083
50	0xbe06c24f	-0.1316006
51	0x3eafe865	0.3435699
52	0xbf2339d1	-0.63760096
53	0xbf4e289f	-0.8053073
54	0xbc85b77f	-0.01632285
55	0xbe39b01a	-0.18133584
56	0x3e8e4858	0.2778957
57	0x3ef24968	0.4732163
58	0x3eab694e	0.3347878
59	0x3e3fafac	0.18719357
60	0x3c776531	0.0150998095
61	0xbe69622d	-0.22791357
62	0xbebc28dc	-0.36749923
63	0x3ebda373	0.37038764
64	0x3e9f3771	0.31096986
65	0x3e3b47df	0.18289135
66	0x3d82f33b	0.06394049
67	0x3db97b2f	0.090566985
68	0xbfa9eae5	-1.3274809
69	0x3ec94348	0.39309144
70	0xbeb869b2	-0.3601814
71	0xbec87c54	-0.39157355
72	0x3e7add7c	0.24498552
73	0xbf20916d	-0.627219
74	0x3d5b9668	0.053610235
75	0xbeabf225	-0.3358318
76	0x3ec2d2b2	0.38051373
77	0x3f282a11	0.6568919
78	0xbe215735	-0.15755923
79	0xbd0d27cc	-0.03446178
80	0xbe7785c7	-0.24172126
81	0x3f6997f1	0.9124747
82	0x3e04d85c	0.1297316
83	0x3e053f03	0.13012318
84	0xbd5c17a4	-0.053733483
85	0xbeed89bb	-0.46394143
86	0xbf482182	-0.7817613
87	0xbefc6f37	-0.493036
88	0xbdc75fe0	-0.097350836
89	0x3ddfdc08	0.109306395
90	0x3eb0cb12	0.3452993
91	0xbf06626d	-0.52493936
92	0x3ea1d5b5	0.31608358
93	0x3ea63d92	0.3246885
94	0xbd3943ee	-0.0452308
95	0xbe5d4402	-0.21607974
96	0x3df9ac74	0.12191096
97	0xbf3b0770	-0.73058224
98	0x3da1d4a9	0.0790189
99	0xbc76a9ba	-0.015055114

fc1.bias f4 [20]
0	0x3eacb89d	0.337346
1	0xbee104f8	-0.43949103
2	0x3d32b47b	0.04362915
3	0x3e836794	0.2566496
4	0x3eebcb7c	0.46053684
5	0xbeb723fb	-0.35769638
6	0xbee44a40	-0.44587898
7	0xbebc16fa	-0.3673628
8	0xbee7c4af	-0.45267245
9	0x3ef8ddb9	0.4860666
10	0x3dfe2170	0.124087214
11	0x3eb62c2d	0.35580578
12	0xbee90126	-0.4550869
13	0xbedfe428	-0.43728757
14	0x3da5f70d	0.08103762
15	0xbe6186ab	-0.22024028
16	0x3e13ea5b	0.14444868
17	0x3a77c5b8	0.00094517646
18	0x3ebae6df	0.36504266
19	0x3e79fd04	0.24412924

fc2.weight f4 [20, 20]
0	0xbe3f4fae	-0.18682739
1	0x3d9bc850	0.07606566
2	0x3da15c05	0.078788795
3	0x3ea6a755	0.3254954
4	0xbdb1fa46	-0.08690314
5	0x3e520d4e	0.20512888
6	0x3be3110c	0.0069295224
7	0xbe2b1b91	-0.16709734
8	0xbe2f159e	-0.1709809
9	0xbe4ea4d5	-0.20180066
10	0x3e33146c	0.17488259
11	0xbd643c88	-0.05572179
12	0xbdab3e93	-0.083615445
13	0x3f0f1b51	0.55901057
14	0x3dc99c84	0.09844306
15	0xbec3dbf7	-0.38253757
16	0x3e33490f	0.17508338
17	0x3e1f2ace	0.15543672
18	0x3d5fd0aa	0.054642357
19	0xbd88c831	-0.066788085
20	0x3cfa0e14	0.030524291
21	0xbd940b69	-0.07228739
22	0x3e33d22f	0.17560647
23	0xbd6554db	-0.055989128
24	0x3edb1383	0.42788324
25	0x3e20d286	0.15705308
26	0xbe31a11c	-0.17346615
27	0xbbcd9904	-0.0062743444
28	0xbd8ce22d	-0.06879077
29	0x3e46a0f5	0.19397338
30	0x3b4565bd	0.0030120455
31	0xbe2562bf	-0.1615095
32	0x3e0fae12	0.14031246
33	0xbedaf6f6	-0.4276654
34	0xbd804718	-0.0626356
35	0xbe19d1bf	-0.15021418
36	0xbe6039c1	-0.21897031
37	0x3de9fb56	0.11424892
38	0xbd75a273	-0.059969377
39	0x3e4ff315	0.20307572
40	0xbd843135	-0.06454698
41	0x3dbf67f3	0.093459986
42	0xbca97bc1	-0.020688893
43	0x3eaa004c	0.33203351
44	0xbd14a523	-0.0362903
45	0xbe24d689	-0.16097464
46	0x3e0be866	0.13662872
47	0x3e45db49	0.19321932
48	0x3e1482d5	0.14503033
49	0x3e337739	0.17525949
50	0xbde0320d	-0.109470464
51	0xbe839726	-0.25701255
52	0x3d97ac38	0.07405895
53	0xbee248b3	-0.4419609
54	0x3c0a769a	0.008451128
55	0x3e106b1c	0.14103359
56	0xbd9485dc	-0.07252094
57	0x3e81f133	0.25379333
58	0x3dfa855a	0.12232466
59	0x3e575c2d	0.21031256
60	0xbdac09ca	-0.084003046
61	0xbe294478	-0.16530025
62	0x3e33b919	0.17551078
63	0xbdae307a	-0.0850534
64	0xbdbf15d1	-0.09330333
65	0x3c353708	0.011060484
66	0xbcd46cc8	-0.025930777
67	0x3d3a13da	0.04542909
68	0xbe1c5f72	-0.15270784
69	0xbe3bddf7	-0.18346392
70	0xbdfe05b8	-0.124034345
71	0xbd196cc2	-0.037457235
72	0x3d79bfeb	0.060974043
73	0xbda41010	-0.08010876
74	0x3ccdfb03	0.025144106
75	0x3d2b52b6	0.041826926
76	0xbddab594	-0.106791645
77	0x3bd8b669	0.006613542
78	0xbe43c87c	-0.19119447
79	0xbdbbcea2	-0.091702715
80	0x3ea689d7	0.32527038
81	0xbde59424	-0.11209896
82	0x3d97555b	0.07389327
83	0xbe269aa1	-0.16269924
84	0xbd8bf038	-0.068329275
85	0x3e4d05a8	0.20021689
86	0xbc85a43b	-0.016313663
87	0xbc3cb3ad	-0.011517447
88	0x3dfca639	0.12336392
89	0xbe5f2fae	-0.21795532
90	0x3ec09d14	0.3761984
91	0x3dad2cf4	0.0845584
92	0x3e637942	0.22214225
93	0x3e3718bd	0.1788053
94	0x3e445e69	0.1917664
95	0xbe408089	-0.18799032
96	0x3e66157b	0.22469132
97	0xbe4ce49d	-0.20009084
98	0x3dfc09f0	0.12306583
99	0xbd1be5eb	-0.038061064
100	0x3e46a332	0.19398192
101	0xbe5b278a	-0.21401802
102	0xbecd9cfa	-0.40158826
103	0x3e277722	0.1635404
104	0xbe0bf25f	-0.13666676
105	0x3e1312bc	0.14362615
106	0x3e49f180	0.19721031
107	0xbe589e38	-0.21154106
108	0x3da9af29	0.08285362
109	0xbd80948d	-0.06278334
110	0x3ed61c15	0.418183
111	0xbe63d86b	-0.22250526
112	0x3df8b35d	0.12143586
113	0x3e975c59	0.29562643
114	0x3da5bb40	0.08092356
115	0xbd96407e	-0.0733652
116	0x3d8a926a	0.067662075
117	0x3e9b79db	0.30366406
118	0x3e63a563	0.22231059
119	0xbe8bc0c7	-0.27295515
120	0xbda3b478	-0.07993406
121	0x3e489a80	0.19590187
122	0x3e026fe6	0.12737998
123	0x3dea2afb	0.11433979
124	0xbe873d5f	-0.2641401
125	0xbd98e3d6	-0.07465331
126	0xbc450e7a	-0.012027377
127	0xbd8a782d	-0.06761203
128	0xbe37929a	-0.17927018
129	0xbea7e6bb	-0.3279322
130	0x3ea16f60	0.31530285
131	0x3e88c708	0.2671435
132	0x3e606788	0.21914494
133	0x3da63254	0.08115068
134	0x3e8ac86e	0.2710604
135	0x3d337324	0.04381098
136	0x3ed11cb8	0.40842223
137	0xbeb93d4f	-0.36179587
138	0x3d7b7c49	0.061397824
139	0xbc1a437d	-0.0094155045
140	0x3e16ddf4	0.14733106
141	0xbd64b25a	-0.05583415
142	0x3d8261e2	0.06366326
143	0x3d630ab6	0.055430137
144	0x3d840284	0.06445792
145	0xbdffe7f2	-0.12495412
146	0x3e1c815b	0.1528372
147	0xbcea625e	-0.028611358
148	0xbe55e339	-0.2088746
149	0xbdf65546	-0.12027983
150	0x3d8e7be1	0.06957222
151	0x3e4411da	0.19147435
152	0xbda9129f	-0.08255505
153	0x3e2b5e93	0.16735296
154	0x3ccfbf2f	0.025359718
155	0xbc614bd7	-0.013750992
156	0xbb01eb58	-0.0019824114
157	0xbe21cbf0	-0.15800452
158	0x3c9e0e15	0.019293824
159	0x3e3426af	0.17592882
160	0x3e52d2e5	0.20588262
161	0xbe010919	-0.12601127
162	0x3d3a5ba0	0.045497537
163	0x3e29525b	0.16535322
164	0xbd427f1c	-0.047484502
165	0x3c0a8b67	0.008456088
166	0x3d60672f	0.054785904
167	0xbe5d63a8	-0.21620047
168	0xbe6d9b88	-0.23203862
169	0xbe239113	-0.1597331
170	0x3e0fad71	0.14031006
171	0x3dce160e	0.100628
172	0xbe0c53c0	-0.13703823
173	0xbe542e68	-0.20720828
174	0x3c144cac	0.009051483
175	0xbae326fe	-0.0017330346
176	0x3ec69fa0	0.3879366
177	0xbdfe3fda	-0.124145225
178	0x3e3f96a7	0.18709813
179	0xbe455455	-0.19270451
180	0x3ce58aea	0.028020341
181	0x3e0030d2	0.12518623
182	0xbd4ed47f	-0.05049562
183	0xbdb7c76e	-0.08973585
184	0x3d93e1c0	0.07220793
185	0x3e2261b8	0.15857589
186	0xbe0fd838	-0.14047325
187	0xbca2ec6d	-0.019888127
188	0x3e2cbc30	0.16868663
189	0x3d0130b4	0.031540588
190	0x3b0fd63a	0.0021947757
191	0x3cfb9505	0.030710706
192	0x3e134f56	0.14385733
193	0xbd982a09	-0.074298926
194	0x3e14bfcc	0.1452629
195	0xbd42492b	-0.04743306
196	0xbd9591c5	-0.07303194
197	0xbe4f356e	-0.20235226
198	0x3d52e905	0.051491756
199	0xbdf17c39	-0.11791272
200	0xbef057e1	-0.46942046
201	0x3da7f0b2	0.08200206
202	0xbed00334	-0.40627444
203	0x3eaa131f	0.33217713
204	0xbee6c2fb	-0.45070633
205	0xbd2d85aa	-0.0423638
206	0x3d059cf0	0.03262037
207	0xbd8d7a03	-0.069080375
208	0xbe3ac7c7	-0.18240272
209	0xbf035a0e	-0.5130929
210	0x3ef535fd	0.47892752
211	0xbebf96bc	-0.3741969
212	0x3e158f3d	0.14605422
213	0x3f6b7923	0.91981715
214	0x3eb3f92d	0.35151044
215	0xbe94b7b3	-0.290464
216	0x3e46da7d	0.19419284
217	0x3df181d3	0.1179234
218	0xbcd45f3d	-0.02592432
219	0xbe631584	-0.22176176
220	0xbd1f50b4	-0.038895324
221	0x3d790dd8	0.060804218
222	0xbe856bb9	-0.26058748
223	0x3ea1da7c	0.31612003
224	0x3cba67e3	0.022754615
225	0x3d8f4368	0.069952786
226	0xbe3041f0	-0.17212653
227	0xbe357ca8	-0.17723334
228	0x3dd0332e	0.10166012
229	0xbd157441	-0.03648782
230	0x3df86542	0.121286884
231	0x3e448f2d	0.19195242
232	0x3e3bfb1e	0.18357512
233	0x3d5e659b	0.054296117
234	0x3dced7f1	0.10099781
235	0x3e248b58	0.1606878
236	0x3e42ed8f	0.19035934
237	0xbe4d7918	-0.20065725
238	0x3e854c76	0.26034898
239	0xbe23f6ee	-0.16012165
240	0x3e489f96	0.19592127
241	0x3dc7c918	0.097551525
242	0x3d6afb97	0.05736884
243	0xbeaeec5c	-0.34164703
244	0x3aae2229	0.0013285327
245	0xbdf9a932	-0.121904746
246	0x3dcbc3aa	0.09949429
247	0xbd39fd04	-0.04540731
248	0xbdb37925	-0.08763341
249	0x3d6d9d03	0.058011066
250	0x3e28efda	0.16497746
251	0x3e882479	0.26590326
252	0x3e62c417	0.22145115
253	0xbd38093d	-0.044930685
254	0x3cae7fa7	0.021301104
255	0xbd0c5008	-0.03425601

fc2.bias f4 [20]
0	0xbc6fdd31	-0.0146401385
1	0x3e6106a3	0.21975188
2	0x3ddb4888	0.107071936
3	0x3d0d3cff	0.034482
4	0x3e983650	0.29728937
5	0x3d3ce7ca	0.04611949
6	0x3de73633	0.112896346
7	0x3d272f5f	0.04081666
8	0x3df466b9	0.11933655
9	0xbe09f53d	-0.13472457
10	0x3cd01efa	0.025405396
11	0xbe0f8736	-0.14016423
12	0xbe12fa6d	-0.14353342
13	0x3cdb5162	0.026772205
14	0x3e5acfe5	0.21368368
15	0xbe39e3a3	-0.18153243
16	0x3e633c0f	0.2219088
17	0xbdebcbe2	-0.11513497
18	0xbd89aac9	-0.06722028
19	0xbe681737	-0.22665106

fc3.weight f4 [20, 20]
0	0xbdf9ed85	-0.122035064
1	0x3d6217f3	0.05519862
2	0xbdc707d0	-0.09718287
3	0x3e1d62cb	0.15369718
4	0xbdf4730b	-0.11936005
5	0xbc07a87c	-0.008279916
6	0xbe1d0188	-0.15332615
7	0xbe580055	-0.21093877
8	0x3dfc932d	0.12332759
9	0xbca806e7	-0.020511104
10	0x3dbd9a4d	0.09257946
11	0x3df4af5d	0.119475104
12	0x3bf128b8	0.0073595904
13	0xbdfe7cce	-0.12426148
14	0xbdb68369	-0.08911783
15	0x3d1ddf47	0.038543012
16	0x3cb56f8c	0.022147916
17	0x3e33a9fb	0.17545311
18	0x3de63a81	0.112416275
19	0xbdbb732a	-0.09152825
20	0xbd5b3408	-0.053516418
21	0xbe93b342	-0.288477
22	0x3e1b8361	0.15186836
23	0xbd76daaa	-0.060267128
24	0x3e5cf7e8	0.21578944
25	0x3d3591f3	0.04432864
26	0x3ebbe773	0.3670002
27	0xbd4367b1	-0.04770631
28	0x3eb7d38a	0.3590358
29	0xbd16d0ca	-0.03682021
30	0xbe8cb390	-0.27480745
31	0xbd9cb37c	-0.076514214
32	0x3d88cfa6	0.06680231
33	0xbc65f98e	-0.014036549
34	0xbd89a880	-0.06721592
35	0x3e3f26b4	0.18667108
36	0xbe0c2db2	-0.13689306
37	0xbe06c063	-0.13159327
38	0x3c497b78	0.012297504
39	0x3e8986dc	0.26860702
40	0xbdc41645	-0.0957456
41	0x3ea1a511	0.31571248
42	0xbe3564e1	-0.17714263
43	0xbd387d23	-0.045041215
44	0x3db32357	0.08746975
45	0xbec914cf	-0.39273688
46	0x3e32e249	0.17469133
47	0x3d3e3f9a	0.046447374
48	0xbe876df4	-0.26451075
49	0xbd2eaed8	-0.042647213
50	0xbe5e1993	-0.21689443
51	0xbd3a60e5	-0.045502562
52	0xbe2d4bb6	-0.16923413
53	0xbda1371d	-0.0787184
54	0x3e13bbbd	0.14427085
55	0x3e49f426	0.19722041
56	0x3e01c435	0.12672503
57	0xbe52c648	-0.20583451
58	0xbe09248d	-0.1339285
59	0xbda9e385	-0.08295349
60	0x3ce96467	0.028490258
61	0x3d8a3bcf	0.06749689
62	0x3da8560c	0.08219537
63	0xbd253a30	-0.040338695
64	0xbe37c719	-0.17947043
65	0xbe7b5be6	-0.24546775
66	0x3d7504cf	0.05981904
67	0x3df83162	0.12118794
68	0x3e5a496b	0.21317069
69	0xbdf8af98	-0.12142867
70	0xbe700da4	-0.23442703
71	0x3dbc4fb2	0.09194888
72	0x3e4eb66e	0.20186779
73	0xbd02e69a	-0.0319582
74	0x3e9906fd	0.29888144
75	0xbda03e10	-0.078243375
76	0x3e8aaf05	0.27086654
77	0xbe375bee	-0.17906162
78	0xbcbeab04	-0.023274906
79	0x3d7db5c4	0.061940923
80	0xbe575a93	-0.21030645
81	0x3e899434	0.26870883
82	0xbe0dc11c	-0.13843197
83	0x3dd20da6	0.102565095
84	0xbdada445	-0.084785976
85	0x3e02d427	0.12776242
86	0x3e1f890f	0.15579627
87	0x3da2e518	0.079538524
88	0xbd00c381	-0.031436447
89	0xbe3b2f70	-0.18279815
90	0xbe690cdf	-0.22758816
91	0xbe21091d	-0.15726133
92	0x3e11be34	0.14232713
93	0x3e3fe449	0.18739428
94	0x3e970b80	0.2950096
95	0xbe14afab	-0.14520137
96	0xbcb1b45d	-0.02169245
97	0xbc5a4fd6	-0.013324698
98	0xbdbe51fc	-0.09292981
99	0xbda1a49e	-0.07892726
100	0xbdd806a4	-0.105481416
101	0xbe179a60	-0.14804983
102	0xbe0c92f1	-0.13727929
103	0x3e210726	0.15725383
104	0xbdc75739	-0.09733433
105	0xbe296e23	-0.1654592
106	0x3ddc510e	0.107576475
107	0x3d4dccc8	0.050244123
108	0x3dc2be8c	0.09509
109	0xbd859d70	-0.065241694
110	0x3e449aa0	0.1919961
111	0x3e191356	0.14948782
112	0xbd638ec5	-0.055556078
113	0x3bdeaf36	0.006795789
114	0xbc71a5d3	-0.014749008
115	0x3d710538	0.058842868
116	0xbdd31ad4	-0.103078514
117	0x3cafa71a	0.021441985
118	0x3dff7502	0.12473489
119	0x3d6d3824	0.057914868
120	0x3e75fff9	0.24023427
121	0x3d9dc20a	0.07703026
122	0xbe0f7104	-0.14007956
123	0x3e447d0c	0.19188327
124	0x3e6c75de	0.23091838
125	0x3d455e5d	0.048185695
126	0x3c9ed737	0.019389732
127	0xbe2f95ce	-0.1714699
128	0x3e21f928	0.15817702
129	0xbd93dd43	-0.07219937
130	0x3df639a9	0.120227166
131	0x3e4c56f1	0.1995504
132	0x3da51d4f	0.08062231
133	0x3dc6ebab	0.09712919
134	0x3cbe7f37	0.02325402
135	0x3e627ee1	0.22118713
136	0x3d0fd987	0.03511956
137	0x3d8ab78a	0.067732885
138	0xbe25791a	-0.16159478
139	0x3bf4749f	0.0074601914
140	0x3e0b4391	0.13599993
141	0x3e3b0b17	0.18265949
142	0xbdbb222e	-0.09137379
143	0x3de989b5	0.11403219
144	0x3cd6a168	0.026200011
145	0x3e4460db	0.19177572
146	0x3db98217	0.09058016
147	0x3e06fe7f	0.1318302
148	0x3e15e8ce	0.14639589
149	0x3ce3d192	0.027809892
150	0xbe35eefc	-0.17766947
151	0xbe28102c	-0.16412419
152	0x3d686c12	0.05674369
153	0xbd6a2c01	-0.05717087
154	0x3bbb6860	0.0057192296
155	0x3dedfffd	0.116210915
156	0x3de8cce7	0.11367207
157	0x3db59bb6	0.0886759
158	0x3d4d1c9c	0.050076112
159	0x3e206c67	0.15666352
160	0x3e0d87b5	0.138213
161	0xbe5bb65d	-0.21456285
162	0xbd64f8fd	-0.055901516
163	0x3dda11a5	0.10647897
164	0x3cc9149b	0.024545958
165	0x3e354d72	0.17705324
166	0x3e8e6afb	0.27815995
167	0x3da4e215	0.08050934
168	0xbddbb0a2	-0.107270494
169	0xbe5e78fc	-0.2172584
170	0x3d2e1187	0.042497184
171	0x3e5eaf9f	0.21746682
172	0x3ca8f704	0.020625599
173	0xbdebc12f	-0.11511456
174	0xbd24cd1d	-0.040234674
175	0x3df023d7	0.11725586
176	0x3e433e21	0.19066669
177	0x3d292b1a	0.04130087
178	0x3da2d225	0.07950238
179	0xbc17a7fb	-0.009256358
180	0x3e39c829	0.18142761
181	0xbe81489e	-0.25250715
182	0xbe80bbbc	-0.2514323
183	0xbe5d9ba6	-0.21641406
184	0xbe118869	-0.14212193
185	0x3e82b9e0	0.25532436
186	0x3e90979b	0.28240666
187	0xbd46d0a4	-0.04853882
188	0xbe075e88	-0.13219655
189	0x3d995759	0.07487363
190	0x3ebe9fbb	0.3723124
191	0xbed9444a	-0.42434913
192	0x3d81cf25	0.06338338
193	0x3e4da226	0.20081386
194	0x3e5a0df2	0.21294382
195	0xbdba786e	-0.091050014
196	0x3e20d225	0.15705164
197	0x3dc3b8f9	0.09556765
198	0x3d05a21c	0.032625303
199	0x3e3ea730	0.18618464
200	0x3e92cf58	0.28673816
201	0xbe60d60a	-0.2195665
202	0xbe3c2971	-0.18375184
203	0x3d39bb14	0.045344427
204	0x3e9dc8f4	0.30817378
205	0x3de85a6e	0.11345373
206	0x3dc85c61	0.09783245
207	0xbe2817f2	-0.16415384
208	0x3d0ec089	0.034851585
209	0xbbb035fd	-0.0053775297
210	0x3e73620b	0.23767869
211	0x3d8f01ff	0.069828026
212	0xbe42dbdb	-0.1902918
213	0x3e050b4f	0.12992595
214	0xbdfdeadd	-0.12398312
215	0xbc22a5b6	-0.009927204
216	0x3e438c54	0.190965
217	0xbdbe7bd2	-0.093009606
218	0xbe136486	-0.14393815
219	0xbe0408ff	-0.12894057
220	0x3cf8729b	0.030328086
221	0xbd52b873	-0.051445436
222	0x3dc9ede6	0.09859829
223	0xbe4f45ad	-0.20241423
224	0x3db12f3e	0.08651589
225	0xbd85417f	-0.06506633
226	0x3d8125fc	0.06306073
227	0xbe6212ed	-0.22077532
228	0xbdb1d0bd	-0.08682392
229	0xbd6132fa	-0.054980256
230	0x3e14e562	0.14540628
231	0xbe4bf8b4	-0.19919091
232	0x3d805fb7	0.06268256
233	0xbdbc6167	-0.091982655
234	0xbc60112b	-0.013675968
235	0xbc8b7bfe	-0.017026898
236	0x3d7d74b0	0.06187886
237	0x3e109186	0.14118013
238	0xbe35209b	-0.17688219
239	0xbbab9160	-0.005235836
240	0xbd929e52	-0.071591035
241	0xbc59105f	-0.013248532
242	0xbe4bcca3	-0.19902281
243	0x3c8df18f	0.017327098
244	0x3e48c803	0.19607548
245	0x3e0d2912	0.13785198
246	0xbdc29219	-0.09500522
247	0xbe404440	-0.18776035
248	0x3def190f	0.116747014
249	0xbd7ea0e0	-0.06216514
250	0xbe33b2f2	-0.17548731
251	0x3e6866c8	0.22695458
252	0x3d68691b	0.05674086
253	0xbe97d142	-0.2965184
254	0xbcd7abd0	-0.026327044
255	0x3d8c3f86	0.06848054

fc3.bias f4 [20]
0	0xbe307d18	-0.1723522
1	0x3e88875c	0.2666577
2	0x3e124bb5	0.14286692
3	0xbcc80255	-0.024415174
4	0x3c03cda9	0.008044639
5	0xbd6631cf	-0.056199845
6	0xbe741424	-0.23835808
7	0xbe83b263	-0.25722036
8	0x3e5aaec7	0.21355735
9	0x3ebdaee5	0.37047496
10	0xbd972af4	-0.073812395
11	0xbda0dd18	-0.0785467
12	0x3eac768c	0.33684194
13	0xbbb97c78	-0.00566059
14	0xbe0f0410	-0.13966393
15	0x3d146ec3	0.036238443
16	0x3f040e35	0.5158418
17	0x3eea37d6	0.45745724
18	0xbe349832	-0.17636183
19	0x3e64fb17	0.22361408

fc4.weight f4 [7, 20]
0	0x3d44ff86	0.04809525
1	0xbd6f66ee	-0.05844777
2	0x3dddb656	0.108257934
3	0x3d223d42	0.0396092
4	0xbd4e54ea	-0.05037395
5	0xbcb0128c	-0.021493219
6	0xbdc8fe64	-0.09814146
7	0xbd8959bc	-0.067065686
8	0x3ea1a207	0.3156893
9	0x3f3ab7b1	0.7293654
10	0x3e4a0c16	0.19731173
11	0xbe6dda22	-0.23227742
12	0xbdba59fa	-0.09099193
13	0xbc743436	-0.014905026
14	0x3c70ab0d	0.014689219
15	0x3e9ac1fd	0.30226126
16	0x3e80dd33	0.25168762
17	0x3edf58be	0.43622392
18	0xbe415133	-0.18878631
19	0xbe04e7e0	-0.12979078
20	0xbdeac199	-0.11462707
21	0x3d1c4c00	0.038158417
22	0xbc06f06f	-0.008236035
23	0x3d6f2ad3	0.05839045
24	0xbd5592d8	-0.052141994
25	0xbdec7a50	-0.11546767
26	0xbd942a51	-0.07234634
27	0xbd4a7ee7	-0.04943743
28	0xbdc2fbc0	-0.09520674
29	0x3c69f4f1	0.01427959
30	0x3d2a3be7	0.041561034
31	0x3dc2b456	0.095070526
32	0x3c22ed5b	0.009944285
33	0x3e40490f	0.1877787
34	0x3d6820f6	0.05667206
35	0x3c13b0ef	0.009014352
36	0xbc2def7c	-0.01061618
37	0xbd9164cf	-0.07099306
38	0xbdd132f9	-0.102148004
39	0xbd0847ab	-0.033271473
40	0x3c787160	0.015163749
41	0x3edf4445	0.43606773
42	0xbefb0f9f	-0.49035355
43	0x3c9b59cf	0.018963723
44	0xbd4fc199	-0.05072174
45	0x3e1cac1d	0.15300031
46	0xbe830076	-0.2558629
47	0x3c673266	0.014111137
48	0xba75c4a6	-0.0009375311
49	0x3eed520f	0.46351668
50	0xbea68a2a	-0.32527286
51	0x3ceb8a53	0.028752482
52	0xbe13155d	-0.14363618
53	0xbd864948	-0.06556946
54	0x3e43c324	0.19117409
55	0xbdbdda33	-0.09270134
56	0x3edae8f5	0.42755857
57	0x3e8dbd05	0.27683273
58	0xbc9fe18f	-0.019516734
59	0xbeaa390d	-0.3324665
60	0x3e5a39ad	0.21311064
61	0xbe6d9cf0	-0.23204398
62	0x3ea28aa0	0.31746387
63	0x3cfe188e	0.031017568
64	0x3e97b631	0.2963119
65	0x3d2a681f	0.041603204
66	0xbbd00e59	-0.0063493666
67	0x3e3856d8	0.18001878
68	0x3eb5ef2f	0.35534045
69	0xbc35b81d	-0.011091259
70	0x3ea49d22	0.32151133
71	0x3d68910f	0.056778964
72	0xbef00b1d	-0.4688348
73	0x3cda6e6a	0.026663978
74	0xbe1e19c2	-0.15439513
75	0x3e8a2ad7	0.2698581
76	0xbf1fdf6f	-0.6245031
77	0xbefcfb87	-0.4941065
78	0xbd67a7cb	-0.056556504
79	0x3f440aef	0.76579183
80	0x3d592286	0.05301144
81	0xbe56ca39	-0.2097558
82	0xbe0ef596	-0.13960871
83	0xbedaffdf	-0.4277334
84	0xbe82c1e1	-0.25538543
85	0xbe4881ac	-0.19580716
86	0x3e2a6333	0.16639404
87	0xbc725a7e	-0.014792083
88	0xbe00e011	-0.12585475
89	0xbd8556fd	-0.06510732
90	0x3dd8e03b	0.105896436
91	0x3e1eda39	0.15512933
92	0x3cd53333	0.02602539
93	0x3d7fc162	0.062440284
94	0xbe53f27f	-0.20697974
95	0xbe2932f3	-0.16523342
96	0x3f81e031	1.0146543
97	0x3f04b1ba	0.5183369
98	0x3e3a12dd	0.18171258
99	0xbf4bfb2e	-0.79680145
100	0xbdaac348	-0.08338028
101	0x3eba4a6c	0.36384904
102	0xbdb0252b	-0.08600839
103	0x3e5afd8d	0.21385784
104	0xbd3dc597	-0.046331014
105	0xbdc004e1	-0.093759306
106	0xbddf66d2	-0.10908283
107	0xbe1f7895	-0.15573342
108	0xbe063831	-0.13107373
109	0x3cf61340	0.030038476
110	0xbe71bc0a	-0.23606887
111	0xbbfdd6ae	-0.007746539
112	0x3e23a492	0.15980747
113	0x3dadd490	0.08487809
114	0xbe09179c	-0.13387913
115	0x3d87b955	0.06627146
116	0xbf2be595	-0.6714719
117	0xbeae8eef	-0.34093425
118	0xbe433679	-0.19063748
119	0x3eff6ea0	0.49889088
120	0x3d92e459	0.0717246
121	0xbe12048f	-0.14259551
122	0x3c99680a	0.018726368
123	0xbe6c80c4	-0.23095995
124	0xbd6382e8	-0.055544764
125	0x3e06eb0c	0.13175601
126	0x3e17c9bf	0.14823054
127	0x3d54fa8e	0.05199676
128	0xbcfd9a30	-0.030957311
129	0x3dcd7cdf	0.10033583
130	0x3d095ed6	0.03353771
131	0xbe5090ae	-0.20367691
132	0xbc8e5326	-0.017373633
133	0x3c42fbdb	0.011900867
134	0xbdf8747e	-0.12131594
135	0x3e2f05f3	0.17092113
136	0x3e031fa0	0.12805033
137	0x3e30bc14	0.17259246
138	0x3e076505	0.1322213
139	0xbc80cd27	-0.015722824

fc4.bias f4 [7]
0	0x3f7b0fbc	0.98070884
1	0x3d36473f	0.04450154
2	0x3d8c99d0	0.06865275
3	0xbe3608e3	-0.17776828
4	0x3ef18354	0.47170508
5	0xbe832b97	-0.25619194
6	0x3d2e44b5	0.042545993
